model.pth (torch, 439796 bytes, 6 tensors)

fc1.weight f4 [128, 784]
0	0x3cf84553	0.030306494
1	0x3b205b5e	0.0024468522
2	0x3d15268a	0.036413707
3	0xbc89a9f5	-0.016804675
4	0xbcbbd726	-0.02292974
5	0x3bc2279d	0.0059251324
6	0xbcb68403	-0.022279745
7	0x3c94f875	0.01818488
8	0x3cca1ea1	0.024672808
9	0x3c9d0d94	0.019171514
10	0xbce2aa0a	-0.027668972
11	0x3c93a77f	0.018024204
12	0x3d203daa	0.039121307
13	0x3d175b3e	0.03695225
14	0x3b6008df	0.0034184975
15	0x3c9344d9	0.017977165
16	0xbcc8f698	-0.024531648
17	0x3bca4dbd	0.006173818
18	0xbca5826a	-0.020203788
19	0xbc75e06e	-0.0150071215
20	0xbb0e3049	-0.002169626
21	0x3bb3b2dd	0.0054839686
22	0xb93875a5	-0.00017591433
23	0x3d08ac00	0.033367157
24	0x3cce5b4d	0.02519002
25	0x3bc5bd0d	0.0060344995
26	0xbcc8c5dd	-0.024508411
27	0xbc8a089f	-0.016849814
28	0xbce16d60	-0.027517974
29	0x3b3f6d9f	0.0029209626
30	0x3c28db01	0.010306121
31	0x3ca251ef	0.01981446
32	0x3c59d859	0.01329621
33	0xbc707742	-0.014676871
34	0xbcb7c818	-0.02243428
35	0x3be15d0d	0.0068775476
36	0x3c33483d	0.010942516
37	0x3c452335	0.01203232
38	0x3d1fdb20	0.039027333
39	0x3ce64ef1	0.028113814
40	0x3b9d8bdd	0.004807933
41	0x3d0a9312	0.033831663
42	0x3cb00d45	0.021490702
43	0xbcce854d	-0.025210047
44	0xbc89387d	-0.016750569
45	0xbc305631	-0.010762737
46	0xbcf62211	-0.030045541
47	0x3c076027	0.008262671
48	0x3d038a32	0.032114215
49	0x3b8d0195	0.004303167
50	0xbc3853ad	-0.011250419
51	0xbce35144	-0.027748711
52	0x3cfbd82b	0.030742725
53	0xbcbbb0d1	-0.022911461
54	0x3cdfbd47	0.027311934
55	0xbca1805f	-0.019714532
56	0xbcab3668	-0.020899966
57	0x3d1f0d66	0.038831137
58	0x3d003939	0.03130457
59	0xbbe690c9	-0.0070363027
60	0xbc225ff1	-0.0099105695
61	0x3ce5815b	0.028015783
62	0x3c10477e	0.008806108
63	0x3c4957cd	0.012289
64	0xbbf364a3	-0.0074277683
65	0xbcb188fd	-0.021671766
66	0xbbf6ae0a	-0.0075280713
67	0x3c2d8dc1	0.010592879
68	0xbc97b711	-0.01851991
69	0x3a96aeb6	0.001149616
70	0x3c22e02f	0.009941145
71	0x3d16b778	0.036796063
72	0xbc00e04e	-0.007865978
73	0xbc1f4dd8	-0.009723149
74	0xbb082f6e	-0.0020780223
75	0x3b23378e	0.002490494
76	0x3ce2b72d	0.027675236
77	0x3ca06fb4	0.019584514
78	0x3c908ace	0.017644312
79	0xbbbd3e6a	-0.0057752626
80	0x3bf5b42d	0.0074982853
81	0xbccef456	-0.025262993
82	0x3cee9b05	0.029126653
83	0xbc4d7f75	-0.012542595
84	0xbb9f3b5f	-0.0048593725
85	0xbc7e0bbd	-0.015505728
86	0xbcded5e9	-0.02720161
87	0x3cf87515	0.030329267
88	0xbc1c3471	-0.009533987
89	0xbc2b891f	-0.010469704
90	0x3c78a139	0.015175157
91	0xbcee5601	-0.029093744
92	0xbc1ab003	-0.0094413785
93	0xb9dc83c6	-0.0004205985
94	0x3c0f6d8a	0.0087541435
95	0x3ba9720d	0.0051710666
96	0xbc018743	-0.007905784
97	0xbceb86b0	-0.028750747
98	0x3ce21fc4	0.027603038
99	0x3b892633	0.004185462
100	0x3b572e7d	0.0032834106
101	0x3d0b0fe9	0.03395072
102	0xbbce6cfe	-0.006299614
103	0x3d20660a	0.039159812
104	0xbcb6336b	-0.022241315
105	0x3c886294	0.016648568
106	0xbc4cb100	-0.012493372
107	0x3ba59ef2	0.005054348
108	0x3bfb08ed	0.007660976
109	0xbcb578ea	-0.022152383
110	0x3c88b865	0.016689489
111	0x3cd4716d	0.025932992
112	0x3d1a4546	0.03766372
113	0x3cace63b	0.021105876
114	0xbcd5edbf	-0.026114343
115	0xbc77ffde	-0.015136687
116	0xbc493da1	-0.01228276
117	0x3d268e86	0.040663265
118	0x3cc310a2	0.023811642
119	0x3cd2e004	0.025741585
120	0x3bbecef2	0.0058230096
121	0x3ba15f20	0.00492467
122	0x3cf4f47b	0.029901734
123	0xbbec2451	-0.0072064777
124	0x3d208579	0.03918979
125	0x3d1ddfac	0.03854339
126	0x3bad172f	0.0052823047
127	0x3d2ee58c	0.04269938
128	0x3c2fd56f	0.010732039
129	0x3add3ac1	0.0016878472
130	0x3c9c1580	0.01905322
131	0xbc066d7d	-0.008204815
132	0x3c06f64c	0.008237433
133	0xbba3a2de	-0.0049937805
134	0x3c502d64	0.0127061345
135	0x3cbf1124	0.023323603
136	0xbca052cf	-0.019570736
137	0xbcdc2a15	-0.026875535
138	0xbce9449a	-0.028475095
139	0xbbaf12df	-0.005342826
140	0x3a6ad7d2	0.00089585513
141	0xbc99e46d	-0.01878568
142	0x3c9f9bfc	0.019483559
143	0xbcd36ff8	-0.025810227
144	0x3d05e4f8	0.032689065
145	0x3d0add36	0.03390237
146	0xbc851c41	-0.016248824
147	0x3cb63d75	0.022246102
148	0x3cb2b918	0.021816775
149	0xbce6f72f	-0.028194038
150	0x3c2c487c	0.0105153285
151	0xbc55239a	-0.013008976
152	0x3cf6a171	0.030106278
153	0x3cf65c10	0.030073196
154	0x3ba14406	0.004921439
155	0x3aea8db2	0.0017895012
156	0x3ccb76ca	0.024836916
157	0xbc608ef4	-0.013705958
158	0xbcf07b6f	-0.029355733
159	0xbc405506	-0.011739021
160	0xbc161545	-0.0091603445
161	0x3c24d0f7	0.010059587
162	0x3c9c30e8	0.019066289
163	0xbce9e327	-0.028550697
164	0x3c4154ed	0.011800033
165	0xbcc57467	-0.024103357
166	0x3bfefced	0.007781616
167	0xbc1cadc3	-0.009562912
168	0xbcc87f48	-0.024474755
169	0x3cc7c27d	0.024384731
170	0x3c4d4a79	0.012529963
171	0x3c8c9525	0.017160961
172	0x3b3fc2ab	0.0029260318
173	0xbcdd2997	-0.02699737
174	0x3c9db6cb	0.019252202
175	0x3d1a12de	0.03761565
176	0x3c75882a	0.014986077
177	0xbc6f626b	-0.014610867
178	0xbabb3f6f	-0.0014285872
179	0x3ca385ce	0.019961264
180	0xbd1449a1	-0.03620303
181	0xbaacb4fd	-0.0013176497
182	0x3ba9d511	0.00518287
183	0x3cf829d5	0.030293385
184	0xbc351bb1	-0.011053965
185	0xbce2aa24	-0.02766902
186	0xbc2645bd	-0.010148463
187	0x3cd43804	0.025905617
188	0xbc093e1d	-0.008376625
189	0x3cbdfc8f	0.023191718
190	0xbd00cbf2	-0.031444497
191	0xbce1246e	-0.027483191
192	0x3c5a9c70	0.013342962
193	0x3ce2c48b	0.02768161
194	0x3cca6b2d	0.024709309
195	0x3ba2390d	0.0049506486
196	0xbbce630e	-0.0062984293
197	0x3c623ecd	0.013808918
198	0x3c92736b	0.017877301
199	0x3d1650b6	0.036698066
200	0x3d1be2c0	0.038058043
201	0xbc579f2e	-0.01316051
202	0x3c7de2b5	0.015495946
203	0xbc96a894	-0.018390931
204	0xbc68065f	-0.014161675
205	0x3d13de46	0.03610065
206	0xbcb5feeb	-0.02221628
207	0xbc719483	-0.014744881
208	0xbcfa0071	-0.030517789
209	0xbba52daa	-0.005040844
210	0xbc3f8cb4	-0.011691261
211	0x3b9b3379	0.0047363606
212	0xbd0c9e58	-0.034330696
213	0x3a990390	0.0011674035
214	0xb9e53151	-0.00043715027
215	0xbc69acaf	-0.014262362
216	0xbcd1dd74	-0.025618292
217	0x39216519	0.00015391818
218	0xbc9fb6bf	-0.01949632
219	0xbc4fdc3c	-0.012686785
220	0x3c471092	0.012149947
221	0xbac1634a	-0.0014754322
222	0xbce0f01c	-0.027458243
223	0xbbda4098	-0.006660532
224	0x3cb1bb3d	0.021695727
225	0x3b8025f1	0.003910773
226	0x3c52aed1	0.012859062
227	0xbb89d7cf	-0.0042066346
228	0xbce9d355	-0.028543154
229	0x3ca8ba09	0.020596521
230	0xbb988229	-0.004654188
231	0x3c2881c2	0.010284843
232	0x3cf16b60	0.029470146
233	0xb993768b	-0.00028126346
234	0x3d115b37	0.03548738
235	0xbceef414	-0.02916912
236	0xbc8cd78c	-0.017192625
237	0x3cab8c10	0.02094081
238	0x3be89676	0.0070980145
239	0xbb6cd67d	-0.0036138587
240	0xbc8674ba	-0.016413081
241	0x3d02349e	0.03178846
242	0xbc8f7705	-0.017512808
243	0x3c2b795a	0.010465944
244	0xb7bb19f2	-2.2304219e-05
245	0x3cad3bca	0.021146674
246	0x3c5c3c61	0.01344213
247	0xbce7dd40	-0.028303742
248	0x3c065691	0.00819935
249	0x3cf801f3	0.030274367
250	0x3b41650f	0.0029509699
251	0xbcd9045b	-0.026491335
252	0x3d093f8a	0.03350786
253	0x3bd04b45	0.006356629
254	0x3b7d02c3	0.0038606382
255	0x3d09def2	0.033659883

fc1.bias f4 [128]
0	0xbcfc0a80	-0.030766726
1	0x3c10c649	0.008836337
2	0x3cbfc53c	0.023409478
3	0x3c9222bc	0.017838828
4	0xbce64fe4	-0.028114267
5	0xbbf64501	-0.00751555
6	0xbcc894fe	-0.024485108
7	0xbc6acc8c	-0.014330994
8	0x3c1cc0a8	0.009567417
9	0x3ce2883d	0.027652854
10	0xbd0b37a1	-0.0339886
11	0x3c90b7af	0.017665712
12	0x3b4ffd60	0.0031736717
13	0xb9df9ee5	-0.0004265226
14	0xb93f1220	-0.00018221932
15	0xbabb3fb2	-0.001428595
16	0xbcbed256	-0.023293655
17	0x3cbd57dc	0.023113184
18	0x3d180254	0.037111595
19	0xbd05019e	-0.032472245
20	0x3c27c435	0.0102396505
21	0xbcba83c5	-0.02276791
22	0x3bda2169	0.006656815
23	0x3cb90849	0.022586958
24	0xbbaaf96a	-0.0052177208
25	0xbd11d78e	-0.03560596
26	0xbd107ac6	-0.035273336
27	0x3cad0fab	0.021125635
28	0xbcf3a440	-0.029741406
29	0xbc5802ad	-0.013184232
30	0xbd05b39b	-0.03264199
31	0x3c8899b9	0.016674863
32	0x3cb19b4d	0.021680498
33	0x3cabf579	0.020991074
34	0x3c97ba5c	0.01852148
35	0x3cb7b179	0.022423493
36	0xbd10829c	-0.03528081
37	0xbc8730e8	-0.016502813
38	0xbd2eed16	-0.04270657
39	0x3cc1f4b7	0.02367626
40	0x3cde80b0	0.027160972
41	0xbce352dc	-0.027749471
42	0xbd18b2c3	-0.037279855
43	0xbc3e7531	-0.01162462
44	0xbd385ac6	-0.045008443
45	0xbd28001b	-0.041015726
46	0xbb988d16	-0.0046554906
47	0xbacd49b4	-0.0015662224
48	0xbd041e58	-0.0322555
49	0xbb9a581d	-0.004710211
50	0x3ccf0826	0.02527244
51	0x3c356f13	0.011073845
52	0xbbb9f401	-0.0056748395
53	0x3b4b5ec4	0.0031031827
54	0x3cf4fa51	0.029904516
55	0xbc87d9e4	-0.01658339
56	0xbb90b7ab	-0.004416426
57	0xbd25d8c8	-0.04048994
58	0x3bd738d6	0.0065680547
59	0xbae5dfac	-0.0017537973
60	0x3be9bb57	0.0071329284
61	0xbceed43c	-0.029153936
62	0xb9beb0de	-0.000363714
63	0x3d062384	0.032748714
64	0xbd0340ea	-0.03204433
65	0xba392116	-0.000706212
66	0xbb981386	-0.0046409993
67	0x3c02805f	0.007965176
68	0x3c95a9a0	0.01826936
69	0x3d2d206d	0.04226725
70	0xbc0ed02f	-0.008716627
71	0xbb0ddd4d	-0.0021646798
72	0xbcdbb61b	-0.026820233
73	0x3c953f88	0.01821877
74	0x3bc6d97e	0.0060684076
75	0xbc95000f	-0.018188505
76	0x3cdd8027	0.027038647
77	0xbca28daa	-0.019842941
78	0x3cfc9833	0.030834293
79	0x3c441a6e	0.011969192
80	0x3c1fa453	0.009743768
81	0xbc5f4f7f	-0.013629793
82	0x3c5f643d	0.0136347385
83	0x3ce8b6ab	0.028407415
84	0xbd3b0189	-0.04565576
85	0x3bffff31	0.0078124036
86	0xbc426d26	-0.011866843
87	0xbb83fc3a	-0.0040278705
88	0x3be33611	0.0069339355
89	0x3d1e9ddb	0.03872476
90	0x3c9a66cf	0.018847851
91	0x3cc3c2d2	0.023896609
92	0x3c390421	0.011292488
93	0x3a0e2e72	0.0005423791
94	0x3bcbcf3e	0.0062197736
95	0x3c76ce97	0.015063903
96	0xbc2eaea4	-0.010661755
97	0xbd1db453	-0.03850205
98	0xbccfc416	-0.025362056
99	0xbc672f16	-0.014110347
100	0x3d24c4d5	0.040226776
101	0x3cba3b45	0.02273334
102	0xbd28c7cc	-0.041206166
103	0x3c22080d	0.009889615
104	0xbb3eeae6	-0.002913171
105	0x3d37c86e	0.04486888
106	0xbb25f273	-0.0025321513
107	0x3a685660	0.00088629685
108	0xbcbd11e2	-0.023079816
109	0x3b9c0144	0.004760893
110	0x3c1d3961	0.0095962
111	0xbca3193e	-0.019909497
112	0xbc5acce2	-0.013354512
113	0x3c76ccbe	0.015063463
114	0x3c9cf9bf	0.019162057
115	0x3d1cb558	0.03825888
116	0xbb876406	-0.004131797
117	0xbcf87403	-0.030328756
118	0xbcbcb8b7	-0.023037298
119	0xbb4a3f5b	-0.0030860517
120	0xbcb5d7b7	-0.022197587
121	0x3c67ec3a	0.014155442
122	0x3c19d704	0.009389643
123	0xbc1a9704	-0.009435419
124	0x3b860618	0.004090082
125	0xbce7c6ae	-0.02829298
126	0xbcaae075	-0.020858983
127	0xbcd2c0f2	-0.02572677

fc2.weight f4 [64, 128]
0	0x3be6ffe0	0.0070495456
1	0xbd6dc447	-0.058048513
2	0x3d50fc0a	0.051021613
3	0x3d788c66	0.06068077
4	0x3dafbc85	0.08580879
5	0xbd6d9ff7	-0.058013882
6	0xbdefea7d	-0.11714647
7	0x3da27a47	0.07933479
8	0x3c249af1	0.010046707
9	0x3db6b2f7	0.089208536
10	0xbdb07de4	-0.08617762
11	0x3e20936a	0.15681234
12	0x3e0bd3af	0.1365497
13	0xbc8928e5	-0.016743133
14	0xbd5e16cf	-0.05422097
15	0xbe5d63c7	-0.21620093
16	0xbd87c53b	-0.066294156
17	0x3d295e4f	0.041349705
18	0xbb5b02ab	-0.0033418338
19	0x3d933cbd	0.07189319
20	0x3d944981	0.07240582
21	0x3ca3c014	0.01998905
22	0x3d02d7c2	0.031944044
23	0xbd8796c6	-0.066205546
24	0x3e0e5363	0.13898997
25	0xbe019f67	-0.12658463
26	0xbd92cfde	-0.07168554
27	0xbd21b609	-0.039480243
28	0xbd720f4d	-0.059096623
29	0x3e444092	0.19165257
30	0x3c6917e5	0.014226888
31	0xbbb8dde0	-0.005641684
32	0x3da20135	0.079103865
33	0x3ddb3250	0.10702956
34	0x3e2155a6	0.15755329
35	0xbc8f22de	-0.01747268
36	0x3daaa52e	0.08332287
37	0x3d8a8ff1	0.06765736
38	0xbd6bd58d	-0.057576705
39	0x3d125122	0.035721906
40	0x3e5cc64d	0.2156002
41	0xbcf6a8f8	-0.030109867
42	0xbe06279b	-0.13101046
43	0xbc806267	-0.015671922
44	0xbe131a0e	-0.14365408
45	0x3d2c3d92	0.042050906
46	0xbda97092	-0.08273424
47	0xbc286cf0	-0.010279879
48	0x3c29d2c8	0.010365196
49	0x3d171af6	0.036890946
50	0x3cfe7005	0.031059274
51	0x3d849cf5	0.0647525
52	0x3d0a9e99	0.033842657
53	0x3d333d09	0.04375938
54	0xbdb5e86e	-0.08882223
55	0xbdb39e3f	-0.087704174
56	0x3b0c9480	0.0021450818
57	0xbd09e372	-0.033664174
58	0xbb0609e9	-0.0020452684
59	0xbe10c64e	-0.14138147
60	0xbd01ff2a	-0.031737484
61	0xbd1a65e3	-0.037694823
62	0x3d96231f	0.073309176
63	0x3e58f934	0.21188813
64	0x3d0966f0	0.033545434
65	0x3d3cdf56	0.046111427
66	0xbe6d474d	-0.2317173
67	0xbdac36c1	-0.08408881
68	0xbd85959b	-0.065226756
69	0x3dd7b558	0.105326355
70	0xbc140bee	-0.009036047
71	0x3e127420	0.1430211
72	0x3d7803b6	0.060550414
73	0xbcb98479	-0.022646176
74	0x3c716a52	0.014734821
75	0xbdb3db7c	-0.08782098
76	0x3e0aa8e4	0.13540989
77	0x3e0f62e5	0.14002569
78	0x3e044d8a	0.12920204
79	0xbe9b6d4f	-0.30356833
80	0xbce0c83d	-0.027439231
81	0xbcfe74c6	-0.031061541
82	0xbc52bfa8	-0.012863077
83	0xbd015f34	-0.031584933
84	0xbe2bc207	-0.16773234
85	0xbdadc050	-0.08483946
86	0x3d7a76c2	0.061148413
87	0xbd6ac47a	-0.05731628
88	0xbd9b9450	-0.07596648
89	0x3daa24c9	0.083077975
90	0x3d01aeaa	0.031660713
91	0xbcd75883	-0.026287323
92	0x3e5af9d9	0.21384372
93	0xbcbbdb98	-0.022931859
94	0x3def0aea	0.116720036
95	0x3dd22e73	0.10262766
96	0x3d4048aa	0.046944298
97	0xbc250a1e	-0.010073213
98	0x3dd5623d	0.10419128
99	0x3d0f9787	0.035056617
100	0xbdf36ea5	-0.11886338
101	0x3da2843a	0.079353765
102	0xbd8cae1d	-0.06869147
103	0x3da4fb71	0.08055771
104	0xbe31346d	-0.17305155
105	0x3d226f23	0.03965677
106	0xbda80cd5	-0.082055725
107	0xbd8ba69c	-0.068188876
108	0x3c7b0470	0.015320882
109	0xbada4e28	-0.0016655372
110	0x3d1c9807	0.038230922
111	0xbcbc7110	-0.023003131
112	0x3e161f92	0.1466048
113	0x3dba1983	0.09086897
114	0xbe7fa51b	-0.24965326
115	0x3dfe26cb	0.12409743
116	0xbc14152a	-0.009038249
117	0xbd7b8b66	-0.061412238
118	0x3cb5aee4	0.02217812
119	0xbc9102bf	-0.017701505
120	0x3dcc463e	0.09974335
121	0x3d999b99	0.07500381
122	0x3d9b8d3b	0.07595297
123	0x3da66664	0.08124998
124	0x3ce29d34	0.02766285
125	0x3cbde250	0.023179203
126	0xbe00ccdb	-0.12578146
127	0x3d8d36b7	0.06895202
128	0x3d2fa640	0.042883158
129	0xbdaaca3f	-0.08339357
130	0x3ca8a190	0.020584852
131	0xbd5c9080	-0.053848743
132	0xbe545a12	-0.20737484
133	0xbc7106fd	-0.014711139
134	0x3cc06d0d	0.0234895
135	0x3db0e691	0.08637727
136	0x3d422519	0.04739866
137	0x3e046ec1	0.12932874
138	0x3dfd82b6	0.12378447
139	0xbcd67e39	-0.026183235
140	0xbd8cf56a	-0.068827465
141	0x3cfe0e95	0.031012813
142	0xbdb257c8	-0.08708149
143	0xbd3d0e44	-0.046156183
144	0xbd4296b7	-0.047507014
145	0xbcd37f8f	-0.02581766
146	0x3cbdadd0	0.02315417
147	0x3d27adec	0.04093735
148	0x3c08dcf5	0.0083534615
149	0xbd09f9b6	-0.03368541
150	0xbd9c0bd5	-0.07619444
151	0x3d32534c	0.04353647
152	0x3d067236	0.032823764
153	0xbde788c3	-0.11305382
154	0xbd4d134a	-0.050067224
155	0xbd1e3c96	-0.038631998
156	0x3d426a12	0.047464438
157	0xbd1a33a8	-0.03764692
158	0xbd67972e	-0.05654066
159	0xbc7fed95	-0.015620609
160	0xbd91247b	-0.07087036
161	0x3dbdc05d	0.09265206
162	0x3d42507c	0.047440037
163	0xbcc34788	-0.02383782
164	0x3e3b5ce0	0.18297148
165	0xbd992122	-0.07477023
166	0xbdf0d0ea	-0.11758597
167	0xbd156fb6	-0.03648349
168	0xbe0afd79	-0.13573255
169	0x3d0d83f1	0.034549657
170	0x3d6df888	0.058098346
171	0x3d8a1ee1	0.06744171
172	0x3d45afb6	0.048263274
173	0x3d2811d2	0.04103262
174	0xbd681b61	-0.056666736
175	0x3d887da7	0.06664591
176	0xbd01db6e	-0.031703405
177	0x3d7289ff	0.059213635
178	0xbc885979	-0.016644226
179	0xbd8da18e	-0.0691558
180	0x3de6f4ba	0.11277147
181	0xbe23187d	-0.1592731
182	0x3d890aaa	0.06691487
183	0x3c3ef35a	0.011654699
184	0x3d6dcd8a	0.058057345
185	0xbe93cbaf	-0.28866336
186	0xbc816380	-0.015794516
187	0xbceb9cf5	-0.028761366
188	0xbc154c56	-0.009112438
189	0x3d9582fd	0.07300375
190	0x3ce01b2d	0.027356708
191	0x3cd63b6d	0.026151383
192	0x3d8dff63	0.06933477
193	0x3d8624f8	0.0655002
194	0xbc696d9b	-0.014247323
195	0x3d7f3f62	0.062316306
196	0x3ba425e3	0.0050093993
197	0x3db67e9d	0.08910868
198	0xbd2b4db0	-0.041822135
199	0xbe045071	-0.12921311
200	0xbcf597ae	-0.029979553
201	0xbcfaad52	-0.030600224
202	0xbdf4b7c3	-0.11949112
203	0xbd1293bf	-0.035785433
204	0x3db85854	0.09001222
205	0x3d4cd6aa	0.050009407
206	0x3d716b1b	0.058940034
207	0xbdf2eb18	-0.11861247
208	0xbdaae986	-0.08345322
209	0x3da2b8ff	0.079454415
210	0x3d760d97	0.060071554
211	0xbd913ecd	-0.070920564
212	0x3da98dcb	0.08278998
213	0x3d831056	0.063996
214	0x3ddd52bc	0.10806796
215	0x3c5393d6	0.012913665
216	0x3d4b1082	0.04957629
217	0x3c16c659	0.009202563
218	0x3918c3ce	0.00014568793
219	0x3e5b8b12	0.2143977
220	0x3d7cc3ae	0.061710052
221	0xbcb9c6fa	-0.022677887
222	0x3bda2db5	0.0066582807
223	0xbd3a12ab	-0.04542796
224	0xbc9ebbae	-0.019376602
225	0xbd8104ef	-0.06299769
226	0xbd3aafa7	-0.04557767
227	0x3cd6305a	0.026146103
228	0x3c1ff532	0.009763049
229	0x3cf294bf	0.029611943
230	0xbd0abc5e	-0.033871047
231	0xbd766a95	-0.06016024
232	0xbd58b9af	-0.052911457
233	0x3dcd73b2	0.10031833
234	0x3daa85ee	0.08326326
235	0xbe2a2f71	-0.1661966
236	0xbc8a746a	-0.016901214
237	0xbd38cb6d	-0.045115877
238	0xbd2902ac	-0.041262314
239	0x3da396b1	0.079877265
240	0xbd8eb4f4	-0.06968108
241	0x3e0b1dfd	0.13585658
242	0x3da13344	0.07871106
243	0xbe4db611	-0.20088984
244	0x3d1725e9	0.03690139
245	0x3d37484d	0.044746686
246	0xbd27e19d	-0.040986646
247	0x3e0196c9	0.12655176
248	0x3dddc1dd	0.10827992
249	0x3d3912d6	0.04518398
250	0xbbe6c090	-0.007041998
251	0x3d0e60bc	0.03476022
252	0x3b8f2d03	0.0043693795
253	0xbd7da0c0	-0.06192088
254	0x3cf790cc	0.030220412
255	0xbd44f1e3	-0.048082244

fc2.bias f4 [64]
0	0xbd04ba4d	-0.032404233
1	0x3b047db2	0.0020216522
2	0x3da2376a	0.07920726
3	0xbd50caa5	-0.050974507
4	0xbd028df5	-0.031873662
5	0xbd14b7ad	-0.03630798
6	0xbdca0baa	-0.09865506
7	0xbcd12a35	-0.025532821
8	0x3c9f2721	0.019427838
9	0xbdfc8c61	-0.12331463
10	0xbda2a576	-0.079417154
11	0xbd086667	-0.033300783
12	0x3dbe6c9d	0.0929806
13	0x3c3d86a7	0.011567748
14	0x3d2059b5	0.03914805
15	0xbcd66dd0	-0.02617541
16	0x3d8459ca	0.064624384
17	0x3b3a7e19	0.0028456508
18	0x3cd354a1	0.02579719
19	0xbb004633	-0.0019573092
20	0x3bfe2221	0.0077555333
21	0xbda892a1	-0.08231092
22	0x3d914b22	0.070944086
23	0x3d954712	0.07288946
24	0xbd0dcb49	-0.034617696
25	0xbc029dbd	-0.007972178
26	0x3d114837	0.03546926
27	0x3d3769fc	0.04477881
28	0x3e0fa2bb	0.1402692
29	0xbd078098	-0.03308162
30	0x3d57c0c0	0.052674055
31	0xbdbf666a	-0.09345706
32	0x3d929b3c	0.07158515
33	0xbb1446d0	-0.0022625215
34	0xbc0fb0e3	-0.0087702
35	0xbd564124	-0.052308217
36	0x3da40d3b	0.08010336
37	0xbc581388	-0.01318825
38	0x3dbe4bb2	0.092917815
39	0x3da64d28	0.08120185
40	0x3dd44933	0.10365524
41	0xbd9c0955	-0.076189674
42	0xbd6dddf1	-0.058072988
43	0xbcb900d3	-0.0225834
44	0x3c974017	0.018463178
45	0xbd66b8b0	-0.056328475
46	0xbd00c90d	-0.031441737
47	0x3d136286	0.03598263
48	0x3d8f56e1	0.06998993
49	0xbd17d18f	-0.037065085
50	0xbd1bcba6	-0.03803601
51	0x3cfb1117	0.030647798
52	0xbd62a524	-0.05533327
53	0x3d504979	0.05085132
54	0xbc85ee93	-0.016349113
55	0x3d8de09c	0.069276065
56	0xb842b9b0	-4.642614e-05
57	0xbc0e6497	-0.008690975
58	0xbdda8f41	-0.10671855
59	0xbd34c4b2	-0.044132896
60	0x3d70f5e8	0.058828264
61	0xbcebb91d	-0.028774792
62	0xbde0cf5f	-0.10977053
63	0xbdef8902	-0.11696054

fc3.weight f4 [10, 64]
0	0x3db25c63	0.087090276
1	0x3dfde43b	0.12397047
2	0x3da7c1aa	0.08191235
3	0x3dafecea	0.0859011
4	0xbe06ef84	-0.13177305
5	0x3e2a3987	0.16623507
6	0xbe70c27f	-0.23511694
7	0x3d9c30fd	0.07626531
8	0x3d87a06a	0.066223934
9	0xbdfc7f43	-0.12328961
10	0x3d08ab88	0.03336671
11	0xbe06e229	-0.13172211
12	0xbe919aad	-0.2843832
13	0x3d88bcdf	0.06676649
14	0x3da16958	0.07881421
15	0xbe8f33aa	-0.27969104
16	0xbe6d62a4	-0.2318216
17	0xbaa68c7e	-0.0012706665
18	0xbcdfd2ca	-0.027322192
19	0xbe097e75	-0.13427146
20	0xbe059353	-0.13044481
21	0xbc86a321	-0.016435208
22	0xbc9c00a1	-0.019043269
23	0x3e4df112	0.20111492
24	0x3d4fc443	0.05072428
25	0x3d510fb0	0.05104035
26	0x3dccd84a	0.10002191
27	0x3db97168	0.09054834
28	0xbd9b75af	-0.07590806
29	0x3e32c0ec	0.17456406
30	0xbe7e6343	-0.24842553
31	0x3cf5dea7	0.030013395
32	0x3e7419c1	0.2383795
33	0x3dc3208c	0.09527692
34	0xbeaa1122	-0.33216196
35	0x3d3df5ec	0.046377108
36	0xbe38ba38	-0.18039787
37	0x3e819392	0.253079
38	0xbda6fe29	-0.08153946
39	0xbd7225dd	-0.05911814
40	0xbe07dd06	-0.13267908
41	0xbd8bb4ba	-0.0682158
42	0x3d655956	0.0559934
43	0xbdbc06d6	-0.09180991
44	0x3de5ea48	0.11226326
45	0xbdd9aa05	-0.10628132
46	0xbdb7e567	-0.08979302
47	0xbd4ca9f0	-0.049966753
48	0xbd2f2676	-0.04276129
49	0xbe00c20d	-0.12574024
50	0xbc57c0c1	-0.013168515
51	0x3da2a1d7	0.07941025
52	0xbe91b03c	-0.2845477
53	0xbdb1a883	-0.08674719
54	0xbc569410	-0.013096824
55	0x3d44e4d1	0.04806978
56	0xbd857986	-0.065173194
57	0x3de8ccc0	0.11367178
58	0x3d4e6656	0.050390564
59	0xbdf2032c	-0.11817011
60	0xbe2121b5	-0.15735514
61	0xbbfd2b29	-0.0077260924
62	0x3dd58513	0.104257725
63	0xbdfb9552	-0.1228434
64	0x3de48c9a	0.1115963
65	0xbe520a6f	-0.20511793
66	0xbe69649a	-0.22792283
67	0xbddb6253	-0.10712113
68	0x3e0f89b0	0.14017367
69	0xbe51f2fd	-0.20502849
70	0xbde4a7fb	-0.11164852
71	0x3df28a54	0.1184279
72	0x3e3dd9b4	0.18540078
73	0xbce8168e	-0.028331067
74	0x3e10ba5d	0.14133592
75	0x3e387b5f	0.18015812
76	0x3d999803	0.07499697
77	0x3d48a914	0.04898937
78	0xbc628210	-0.013824955
79	0x3e52472b	0.20534961
80	0x3db689a9	0.08912975
81	0x3d644af3	0.05573554
82	0xbdd1d240	-0.1024518
83	0xbe6ccb09	-0.23124327
84	0x3cb8b620	0.022547781
85	0xbd9bf451	-0.07614959
86	0x3e272f93	0.16326742
87	0xbe9df8a0	-0.30853748
88	0xbe2561ef	-0.1615064
89	0xbe56c663	-0.20974116
90	0xbdc75cd6	-0.09734504
91	0xbda98ccb	-0.08278807
92	0xbdc069c3	-0.093951724
93	0x3d465df3	0.04842944
94	0xbdc926e3	-0.0982187
95	0x3bf00113	0.007324347
96	0xbe88f678	-0.2675054
97	0xbcbdc343	-0.023164397
98	0xbc9fa5c6	-0.019488227
99	0xbc64c76b	-0.013963561
100	0xbdcde3d2	-0.10053219
101	0xbde9c97d	-0.11415384
102	0x3d3f6ff0	0.04673761
103	0xbe96eab8	-0.2947595
104	0xbe674662	-0.22585443
105	0x3ddee7f0	0.10884082
106	0x3d6dc947	0.05805328
107	0xbe2a7b16	-0.16648516
108	0xbe1ec68c	-0.15505427
109	0xbd3ba183	-0.045808326
110	0xbdf1f4c1	-0.11814261
111	0x3dc513fb	0.096229516
112	0xbdb06cb1	-0.08614481
113	0x3d2bc368	0.0419344
114	0x3d2decd7	0.042462196
115	0xbdbed738	-0.093183935
116	0x3df7543c	0.12076613
117	0x3e802c18	0.2503364
118	0xbe5a310e	-0.21307775
119	0x3d334447	0.043766286
120	0x3e821c3d	0.2541217
121	0xbdfdf366	-0.1239994
122	0x3c282100	0.010261774
123	0xbd35c792	-0.04437978
124	0xbd99bd7d	-0.07506845
125	0xbe5588a5	-0.20852907
126	0xbd5bfa16	-0.053705297
127	0xbe3c3936	-0.18381199
128	0x3e4753f6	0.19465622
129	0xbcb19b8a	-0.021680612
130	0xbc11ccb1	-0.0088989
131	0x3d886b13	0.06661048
132	0x3d9eb9f0	0.077503085
133	0xbd98c6e6	-0.07459812
134	0x3e1b2d7f	0.15154074
135	0xbe419cf1	-0.18907525
136	0x3dc6f8df	0.09715437
137	0x3e28311d	0.16424985
138	0x3cdd34e1	0.027002754
139	0x3e7107f2	0.23538187
140	0xbe126116	-0.14294848
141	0xbd221720	-0.039572835
142	0x3c692f6a	0.014232496
143	0x3cd0a53e	0.025469419
144	0x3de7ef7a	0.113249734
145	0xbdbbe1bc	-0.09173915
146	0x3e434cfc	0.19072336
147	0x3e01487c	0.12625307
148	0x3dbf92bf	0.093541615
149	0xbe4112fb	-0.18854897
150	0xbe5c3138	-0.2150315
151	0xbcbc8e00	-0.02301693
152	0x3d6dcf32	0.058058925
153	0x3d03378b	0.03203539
154	0xbdb59dd3	-0.08867993
155	0xbccec711	-0.025241407
156	0xbd3dad24	-0.046307698
157	0xbc87eac3	-0.016591435
158	0x3d0e59cb	0.034753602
159	0x3d8ef872	0.06980981
160	0xbe2824fd	-0.1642036
161	0x3db71cb9	0.08941025
162	0xbe60c0bd	-0.21948524
163	0xbbc3bdfa	-0.0059735747
164	0x3e516d9d	0.2045197
165	0xbe1401c1	-0.14453794
166	0xbd58d648	-0.05293873
167	0xbcda41af	-0.026642649
168	0xbe301c39	-0.17198266
169	0xbe049a70	-0.12949538
170	0x3d344d49	0.044019017
171	0x3e783037	0.24237143
172	0xbd9b45c6	-0.075816676
173	0xbc3939e3	-0.011305305
174	0xbdcac0f8	-0.09900087
175	0x3da445be	0.08021115
176	0xbe241607	-0.16024028
177	0xbe51e9db	-0.20499365
178	0xbda1837a	-0.07886405
179	0x3dfc82d4	0.12329641
180	0x3e1c21a9	0.15247215
181	0xbe37cdc4	-0.17949587
182	0xbe6c2af3	-0.23063259
183	0xbd60d7b3	-0.054893207
184	0xbe4daac9	-0.2008468
185	0x3d871ce3	0.065973066
186	0xbde9fda3	-0.114253305
187	0xbdb617e6	-0.08891277
188	0xbe3d38f4	-0.18478757
189	0x3c0e007c	0.008667108
190	0x3d44e563	0.048070323
191	0xbe86294c	-0.26203382
192	0xbe191416	-0.14949068
193	0xbd50479b	-0.05084954
194	0xbd24ecf9	-0.040265057
195	0x3de5100e	0.11184703
196	0xbe015565	-0.12630232
197	0x3db8c727	0.0902236
198	0xbaf1f163	-0.001845878
199	0xbddf2cf2	-0.108972445
200	0xbd705d5c	-0.058682784
201	0x3e3fb52b	0.18721454
202	0x3d89f29a	0.06735726
203	0xbe92a02b	-0.28637823
204	0x3d7b138d	0.061297942
205	0x3c210d6c	0.00982986
206	0x3d072b75	0.03300043
207	0x3df8758d	0.12131796
208	0xbc390072	-0.01129161
209	0x3dac6437	0.08417552
210	0xbd4a23c2	-0.049350508
211	0xbe57e89d	-0.21084829
212	0x3d56fd2c	0.052487537
213	0x3e5be218	0.21472967
214	0x3dcf9f91	0.10137857
215	0x3db91f79	0.09039206
216	0xbe81311e	-0.25232786
217	0xbde4c111	-0.11169637
218	0xbe4e8d66	-0.20171127
219	0x3de79821	0.11308313
220	0x3e00ec32	0.12590101
221	0xbdc8d26c	-0.0980576
222	0x3d9def09	0.07711608
223	0x3d424582	0.04742957
224	0xbe1b9622	-0.1519399
225	0x3e1f6500	0.15565872
226	0x3e05ecfe	0.13078687
227	0x3e06c968	0.13162768
228	0xbe41bd25	-0.18919809
229	0xbe0a5132	-0.13507536
230	0xbe3707cf	-0.17874072
231	0xbdd0babb	-0.10191866
232	0x3dbe5b3a	0.09294744
233	0xbd239543	-0.03993727
234	0x3de90be8	0.11379224
235	0x3e26b950	0.16281629
236	0xbe2deeb5	-0.16985591
237	0x3de0c16e	0.10974394
238	0xbd5e50fb	-0.054276448
239	0x3ccc899b	0.02496796
240	0x3e0209aa	0.12698999
241	0xbd41bd2c	-0.04729955
242	0xbda8d7fa	-0.08244319
243	0xbdce7a9c	-0.1008198
244	0xbd44ed3e	-0.048077814
245	0xbda172a8	-0.07883197
246	0x3ea39062	0.31946093
247	0xbd377875	-0.04479261
248	0xbdce7793	-0.10081401
249	0x3d1b8f1d	0.03797828
250	0xbda4e92b	-0.08052286
251	0x3d036b59	0.032084797
252	0xbe71fe61	-0.23632194
253	0xbddda66b	-0.10822757
254	0xbc398244	-0.011322562
255	0xbe1eb695	-0.15499337

fc3.bias f4 [10]
0	0xbd35b90a	-0.04436592
1	0xbd24000d	-0.04003911
2	0x3dced1cc	0.10098609
3	0xbc3983f2	-0.011322962
4	0xbdb955b2	-0.09049548
5	0xbd2537d1	-0.040336434
6	0x3d0e6442	0.034763582
7	0xbd669cbc	-0.056301817
8	0x3df128a4	0.1177533
9	0xbd3a72e5	-0.04551973
